…
"DPT_Hybrid\"   # MiDaS v3 - Hybrid    (medium accuracy, medium inference speed)\n#model_type = \"MiDaS_small\"  # MiDaS v2.1 - Small   (lowest accuracy, highest inference speed)\n\nmidas = torch.hub.load(\"intel-isl/MiDaS\", model_type)\n\nUsing cache found in /home/ben/.cache/torch/hub/intel-isl_MiDaS_master\n\n\n\ndevice = torch.device(\"cuda\") if torch.cuda.is_available() else torch.device(\"cpu\")\ndevice\n\ndevice(type='cuda')\n\n\n\nmidas.to(device)\nmidas.eval()\n\nDPTDepthModel(\n  (pretrained): Module(\n    (model): VisionTransformer(\n      (patch_embed): PatchEmbed(\n        (proj): Conv2d(3, 1024, kernel_size=(16, 16), stride=(16, 16))\n        (norm): Identity()\n      )\n      (pos_drop): Dropout(p=0.0, inplace=False)\n      (patch_drop): Identity()\n      (norm_pre): Identity()\n      (blocks): Sequential(\n        (0): Block(\n          (norm1): LayerNorm((1024,), eps=1e-06, elementwise_affine=True)\n          (attn): Attention(\n            (qkv): Linear(in_features=1024, out_features=3072, bias=True)\n            (q_norm): Identity()\n            (k_norm): Identity()\n            (attn_drop): Dropout(p=0.0, inplace=False)\n            (proj): Linear(in_features=1024, out_features=1024, bias=True)\n            (proj_drop): Dropout(p=0.0, inplace=False)\n          )\n          (ls1): Identity()\n          (drop_path1): Identity()\n          (norm2): LayerNorm((1024,), eps=1e-06, elementwise_affine=True)\n          (mlp): Mlp(\n            (fc1): Linear(in_features=1024, out_features=4096, bias=True)\n            (act): GELU(approximate='none')\n            (drop1): Dropout(p=0.0, inplace=False)\n            (norm): Identity()\n            (fc2): Linear(in_features=4096, out_features=1024, bias=True)\n            (drop2): Dropout(p=0.0, inplace=False)\n          )\n          (ls2): Identity()\n          (drop_path2): Identity()\n        )\n        (1): Block(\n          (norm1): LayerNorm((1024,), eps=1e-06, elementwise_affine=True)\n          (attn): Attention(\n            (qkv): Linear(in_features=1024, out_features=3072, bias=True)\n            (q_norm): Identity()\n            (k_norm): Identity()\n            (attn_drop): Dropout(p=0.0, inplace=False)\n            (proj): Linear(in_features=1024, out_features=1024, bias=True)\n            (proj_drop): Dropout(p=0.0, inplace=False)\n          )\n          (ls1): Identity()\n          (drop_path1): Identity()\n          (norm2): LayerNorm((1024,), eps=1e-06, elementwise_affine=True)\n          (mlp): Mlp(\n            (fc1): Linear(in_features=1024, out_features=4096, bias=True)\n            (act): GELU(approximate='none')\n            (drop1): Dropout(p=0.0, inplace=False)\n            (norm): Identity()\n            (fc2): Linear(in_features=4096, out_features=1024, bias=True)\n            (drop2): Dropout(p=0.0, inplace=False)\n          )\n          (ls2): Identity()\n          (drop_path2): Identity()\n        )\n        (2): Block(\n          (norm1): LayerNorm((1024,), eps=1e-06, elementwise_affine=True)\n          (attn): Attention(\n            (qkv): Linear(in_features=1024, out_features=3072, bias=True)\n            (q_norm): Identity()\n            (k_norm): Identity()\n            (attn_drop): Dropout(p=0.0, inplace=False)\n            (proj): Linear(in_features=1024, out_features=1024, bias=True)\n            (proj_drop): Dropout(p=0.0, inplace=False)\n          )\n          (ls1): Identity()\n          (drop_path1): Identity()\n          (norm2): LayerNorm((1024,), eps=1e-06, elementwise_affine=True)\n          (mlp): Mlp(\n            (fc1): Linear(in_features=1024, out_features=4096, bias=True)\n            (act): GELU(approximate='none')\n            (drop1): Dropout(p=0.0, inplace=False)\n            (norm): Identity()\n            (fc2): Linear(in_features=4096, out_features=1024, bias=True)\n            (drop2): Dropout(p=0.0, inplace=False)\n          )\n          (ls2): Identity()\n          (drop_path2): Identity()\n        )\n        (3): Block(\n          (norm1): LayerNorm((1024,), eps=1e-06, elementwise_affine=True)\n          (attn): Attention(\n            (qkv): Linear(in_features=1024, out_features=3072, bias=True)\n            (q_norm): Identity()\n            (k_norm): Identity()\n            (attn_drop): Dropout(p=0.0, inplace=False)\n            (proj): Linear(in_features=1024, out_features=1024, bias=True)\n            (proj_drop): Dropout(p=0.0, inplace=False)\n          )\n          (ls1): Identity()\n          (drop_path1): Identity()\n          (norm2): LayerNorm((1024,), eps=1e-06, elementwise_affine=True)\n          (mlp): Mlp(\n            (fc1): Linear(in_features=1024, out_features=4096, bias=True)\n            (act): GELU(approximate='none')\n            (drop1): Dropout(p=0.0, inplace=False)\n            (norm): Identity()\n            (fc2): Linear(in_features=4096, out_features=1024, bias=True)\n            (drop2): Dropout(p=0.0, inplace=False)\n          )\n          (ls2): Identity()\n          (drop_path2): Identity()\n        )\n        (4): Block(\n          (norm1): LayerNorm((1024,), eps=1e-06, elementwise_affine=True)\n          (attn): Attention(\n            (qkv): Linear(in_features=1024, out_features=3072, bias=True)\n            (q_norm): Identity()\n            (k_norm): Identity()\n            (attn_drop): Dropout(p=0.0, inplace=False)\n            (proj): Linear(in_features=1024, out_features=1024, bias=True)\n            (proj_drop): Dropout(p=0.0, inplace=False)\n          )\n          (ls1): Identity()\n          (drop_path1): Identity()\n          (norm2): LayerNorm((1024,), eps=1e-06, elementwise_affine=True)\n          (mlp): Mlp(\n            (fc1): Linear(in_features=1024, out_features=4096, bias=True)\n            (act): GELU(approximate='none')\n            (drop1): Dropout(p=0.0, inplace=False)\n            (norm): Identity()\n            (fc2): Linear(in_features=4096, out_features=1024, bias=True)\n            (drop2): Dropout(p=0.0, inplace=False)\n          )\n          (ls2): Identity()\n          (drop_path2): Identity()\n        )\n        (5): Block(\n          (norm1): LayerNorm((1024,), eps=1e-06, elementwise_affine=True)\n          (attn): Attention(\n            (qkv): Linear(in_features=1024, out_features=3072, bias=True)\n            (q_norm): Identity()\n            (k_norm): Identity()\n            (attn_drop): Dropout(p=0.0, inplace=False)\n            (proj): Linear(in_features=1024, out_features=1024, bias=True)\n            (proj_drop): Dropout(p=0.0, inplace=False)\n          )\n          (ls1): Identity()\n          (drop_path1): Identity()\n          (norm2): LayerNorm((1024,), eps=1e-06, elementwise_affine=True)\n          (mlp): Mlp(\n            (fc1): Linear(in_features=1024, out_features=4096, bias=True)\n            (act): GELU(approximate='none')\n            (drop1): Dropout(p=0.0, inplace=False)\n            (norm): Identity()\n            (fc2): Linear(in_features=4096, out_features=1024, bias=True)\n            (drop2): Dropout(p=0.0, inplace=False)\n          )\n          (ls2): Identity()\n          (drop_path2): Identity()\n        )\n        (6): Block(\n          (norm1): LayerNorm((1024,), eps=1e-06, elementwise_affine=True)\n          (attn): Attention(\n            (qkv): Linear(in_features=1024, out_features=3072, bias=True)\n            (q_norm): Identity()\n            (k_norm): Identity()\n            (attn_drop): Dropout(p=0.0, inplace=False)\n            (proj): Linear(in_features=1024, out_features=1024, bias=True)\n            (proj_drop): Dropout(p=0.0, inplace=False)\n          )\n          (ls1): Identity()\n          (drop_path1): Identity()\n          (norm2): LayerNorm((1024,), eps=1e-06, elementwise_affine=True)\n          (mlp): Mlp(\n            (fc1): Linear(in_features=1024, out_features=4096, bias=True)\n            (act): GELU(approximate='none')\n            (drop1): Dropout(p=0.0, inplace=False)\n            (norm): Identity()\n            (fc2): Linear(in_features=4096, out_features=1024, bias=True)\n            (drop2): Dropout(p=0.0, inplace=False)\n          )\n          (ls2): Identity()\n          (drop_path2): Identity()\n        )\n        (7): Block(\n          (norm1): LayerNorm((1024,), eps=1e-06, elementwise_affine=True)\n          (attn): Attention(\n            (qkv): Linear(in_features=1024, out_features=3072, bias=True)\n            (q_norm): Identity()\n            (k_norm): Identity()\n            (attn_drop): Dropout(p=0.0, inplace=False)\n            (proj): Linear(in_features=1024, out_features=1024, bias=True)\n            (proj_drop): Dropout(p=0.0, inplace=False)\n          )\n          (ls1): Identity()\n          (drop_path1): Identity()\n          (norm2): LayerNorm((1024,), eps=1e-06, elementwise_affine=True)\n          (mlp): Mlp(\n            (fc1): Linear(in_features=1024, out_features=4096, bias=True)\n            (act): GELU(approximate='none')\n            (drop1): Dropout(p=0.0, inplace=False)\n            (norm): Identity()\n            (fc2): Linear(in_features=4096, out_features=1024, bias=True)\n            (drop2): Dropout(p=0.0, inplace=False)\n          )\n          (ls2): Identity()\n          (drop_path2): Identity()\n        )\n        (8): Block(\n          (norm1): LayerNorm((1024,), eps=1e-06, elementwise_affine=True)\n          (attn): Attention(\n            (qkv): Linear(in_features=1024, out_features=3072, bias=True)\n            (q_norm): Identity()\n            (k_norm): Identity()\n            (attn_drop): Dropout(p=0.0, inplace=False)\n            (proj): Linear(in_features=1024, out_features=1024, bias=True)\n            (proj_drop): Dropout(p=0.0, inplace=False)\n          )\n          (ls1): Identity()\n          (drop_path1): Identity()\n          (norm2): LayerNorm((1024,), eps=1e-06, elementwise_affine=True)\n          (mlp): Mlp(\n            (fc1): Linear(in_features=1024, out_features=4096, bias=True)\n            (act): GELU(approximate='none')\n            (drop1): Dropout(p=0.0, inplace=False)\n            (norm): Identity()\n            (fc2): Linear(in_features=4096, out_features=1024, bias=True)\n            (drop2): Dropout(p=0.0, inplace=False)\n          )\n          (ls2): Identity()\n          (drop_path2): Identity()\n        )\n        (9): Block(\n          (norm1): LayerNorm((1024,), eps=1e-06, elementwise_affine=True)\n          (attn): Attention(\n            (qkv): Linear(in_features=1024, out_features=3072, bias=True)\n            (q_norm): Identity()\n            (k_norm): Identity()\n            (attn_drop): Dropout(p=0.0, inplace=False)\n            (proj): Linear(in_features=1024, out_features=1024, bias=True)\n            (proj_drop): Dropout(p=0.0, inplace=False)\n          )\n          (ls1): Identity()\n          (drop_path1): Identity()\n          (norm2): LayerNorm((1024,), eps=1e-06, elementwise_affine=True)\n          (mlp): Mlp(\n            (fc1): Linear(in_features=1024, out_features=4096, bias=True)\n            (act): GELU(approximate='none')\n            (drop1): Dropout(p=0.0, inplace=False)\n            (norm): Identity()\n            (fc2): Linear(in_features=4096, out_features=1024, bias=True)\n            (drop2): Dropout(p=0.0, inplace=False)\n          )\n          (ls2): Identity()\n          (drop_path2): Identity()\n        )\n        (10): Block(\n          (norm1): LayerNorm((1024,), eps=1e-06, elementwise_affine=True)\n          (attn): Attention(\n            (qkv): Linear(in_features=1024, out_features=3072, bias=True)\n            (q_norm): Identity()\n            (k_norm): Identity()\n            (attn_drop): Dropout(p=0.0, inplace=False)\n            (proj): Linear(in_features=1024, out_features=1024, bias=True)\n            (proj_drop): Dropout(p=0.0, inplace=False)\n          )\n          (ls1): Identity()\n          (drop_path1): Identity()\n          (norm2): LayerNorm((1024,), eps=1e-06, elementwise_affine=True)\n          (mlp): Mlp(\n            (fc1): Linear(in_features=1024, out_features=4096, bias=True)\n            (act): GELU(approximate='none')\n            (drop1): Dropout(p=0.0, inplace=False)\n            (norm): Identity()\n            (fc2): Linear(in_features=4096, out_features=1024, bias=True)\n            (drop2): Dropout(p=0.0, inplace=False)\n          )\n          (ls2): Identity()\n          (drop_path2): Identity()\n        )\n        (11): Block(\n          (norm1): LayerNorm((1024,), eps=1e-06, elementwise_affine=True)\n          (attn): Attention(\n            (qkv): Linear(in_features=1024, out_features=3072, bias=True)\n            (q_norm): Identity()\n            (k_norm): Identity()\n            (attn_drop): Dropout(p=0.0, inplace=False)\n            (proj): Linear(in_features=1024, out_features=1024, bias=True)\n            (proj_drop): Dropout(p=0.0, inplace=False)\n          )\n          (ls1): Identity()\n          (drop_path1): Identity()\n          (norm2): LayerNorm((1024,), eps=1e-06, elementwise_affine=True)\n          (mlp): Mlp(\n            (fc1): Linear(in_features=1024, out_features=4096, bias=True)\n            (act): GELU(approximate='none')\n            (drop1): Dropout(p=0.0, inplace=False)\n            (norm): Identity()\n            (fc2): Linear(in_features=4096, out_features=1024, bias=True)\n            (drop2): Dropout(p=0.0, inplace=False)\n          )\n          (ls2): Identity()\n          (drop_path2): Identity()\n        )\n        (12): Block(\n          (norm1): LayerNorm((1024,), eps=1e-06, elementwise_affine=True)\n          (attn): Attention(\n            (qkv): Linear(in_features=1024, out_features=3072, bias=True)\n            (q_norm): Identity()\n            (k_norm): Identity()\n            (attn_drop): Dropout(p=0.0, inplace=False)\n            (proj): Linear(in_features=1024, out_features=1024, bias=True)\n            (proj_drop): Dropout(p=0.0, inplace=False)\n          )\n          (ls1): Identity()\n          (drop_path1): Identity()\n          (norm2): LayerNorm((1024,), eps=1e-06, elementwise_affine=True)\n          (mlp): Mlp(\n            (fc1): Linear(in_features=1024, out_features=4096, bias=True)\n            (act): GELU(approximate='none')\n            (drop1): Dropout(p=0.0, inplace=False)\n            (norm): Identity()\n            (fc2): Linear(in_features=4096, out_features=1024, bias=True)\n            (drop2): Dropout(p=0.0, inplace=False)\n          )\n          (ls2): Identity()\n          (drop_path2): Identity()\n        )\n        (13): Block(\n          (norm1): LayerNorm((1024,), eps=1e-06, elementwise_affine=True)\n          (attn): Attention(\n            (qkv): Linear(in_features=1024, out_features=3072, bias=True)\n            (q_norm): Identity()\n            (k_norm): Identity()\n            (attn_drop): Dropout(p=0.0, inplace=False)\n            (proj): Linear(in_features=1024, out_features=1024, bias=True)\n            (proj_drop): Dropout(p=0.0, inplace=False)\n          )\n          (ls1): Identity()\n          (drop_path1): Identity()\n          (norm2): LayerNorm((1024,), eps=1e-06, elementwise_affine=True)\n          (mlp): Mlp(\n            (fc1): Linear(in_features=1024, out_features=4096, bias=True)\n            (act): GELU(approximate='none')\n            (drop1): Dropout(p=0.0, inplace=False)\n            (norm): Identity()\n            (fc2): Linear(in_features=4096, out_features=1024, bias=True)\n            (drop2): Dropout(p=0.0, inplace=False)\n          )\n          (ls2): Identity()\n          (drop_path2): Identity()\n        )\n        (14): Block(\n          (norm1): LayerNorm((1024,), eps=1e-06, elementwise_affine=True)\n          (attn): Attention(\n            (qkv): Linear(in_features=1024, out_features=3072, bias=True)\n            (q_norm): Identity()\n            (k_norm): Identity()\n            (attn_drop): Dropout(p=0.0, inplace=False)\n            (proj): Linear(in_features=1024, out_features=1024, bias=True)\n            (proj_drop): Dropout(p=0.0, inplace=False)\n          )\n          (ls1): Identity()\n          (drop_path1): Identity()\n          (norm2): LayerNorm((1024,), eps=1e-06, elementwise_affine=True)\n          (mlp): Mlp(\n            (fc1): Linear(in_features=1024, out_features=4096, bias=True)\n            (act): GELU(approximate='none')\n            (drop1): Dropout(p=0.0, inplace=False)\n            (norm): Identity()\n            (fc2): Linear(in_features=4096, out_features=1024, bias=True)\n            (drop2): Dropout(p=0.0, inplace=False)\n          )\n          (ls2): Identity()\n          (drop_path2): Identity()\n        )\n        (15): Block(\n          (norm1): LayerNorm((1024,), eps=1e-06, elementwise_affine=True)\n          (attn): Attention(\n            (qkv): Linear(in_features=1024, out_features=3072, bias=True)\n            (q_norm): Identity()\n            (k_norm): Identity()\n            (attn_drop): Dropout(p=0.0, inplace=False)\n            (proj): Linear(in_features=1024, out_features=1024, bias=True)\n            (proj_drop): Dropout(p=0.0, inplace=False)\n          )\n          (ls1): Identity()\n          (drop_path1): Identity()\n          (norm2): LayerNorm((1024,), eps=1e-06, elementwise_affine=True)\n          (mlp): Mlp(\n            (fc1): Linear(in_features=1024, out_features=4096, bias=True)\n            (act): GELU(approximate='none')\n            (drop1): Dropout(p=0.0, inplace=False)\n            (norm): Identity()\n            (fc2): Linear(in_features=4096, out_features=1024, bias=True)\n            (drop2): Dropout(p=0.0, inplace=False)\n          )\n          (ls2): Identity()\n          (drop_path2): Identity()\n        )\n        (16): Block(\n          (norm1): LayerNorm((1024,), eps=1e-06, elementwise_affine=True)\n          (attn): Attention(\n            (qkv): Linear(in_features=1024, out_features=3072, bias=True)\n            (q_norm): Identity()\n            (k_norm): Identity()\n            (attn_drop): Dropout(p=0.0, inplace=False)\n            (proj): Linear(in_features=1024, out_features=1024, bias=True)\n            (proj_drop): Dropout(p=0.0, inplace=False)\n          )\n          (ls1): Identity()\n          (drop_path1): Identity()\n          (norm2): LayerNorm((1024,), eps=1e-06, elementwise_affine=True)\n          (mlp): Mlp(\n            (fc1): Linear(in_features=1024, out_features=4096, bias=True)\n            (act): GELU(approximate='none')\n            (drop1): Dropout(p=0.0, inplace=False)\n            (norm): Identity()\n            (fc2): Linear(in_features=4096, out_features=1024, bias=True)\n            (drop2): Dropout(p=0.0, inplace=False)\n          )\n          (ls2): Identity()\n          (drop_path2): Identity()\n        )\n        (17): Block(\n          (norm1): LayerNorm((1024,), eps=1e-06, elementwise_affine=True)\n          (attn): Attention(\n            (qkv): Linear(in_features=1024, out_features=3072, bias=True)\n            (q_norm): Identity()\n            (k_norm): Identity()\n            (attn_drop): Dropout(p=0.0, inplace=False)\n            (proj): Linear(in_features=1024, out_features=1024, bias=True)\n            (proj_drop): Dropout(p=0.0, inplace=False)\n          )\n          (ls1): Identity()\n          (drop_path1): Identity()\n          (norm2): LayerNorm((1024,), eps=1e-06, elementwise_affine=True)\n          (mlp): Mlp(\n            (fc1): Linear(in_features=1024, out_features=4096, bias=True)\n            (act): GELU(approximate='none')\n            (drop1): Dropout(p=0.0, inplace=False)\n            (norm): Identity()\n            (fc2): Linear(in_features=4096, out_features=1024, bias=True)\n            (drop2): Dropout(p=0.0, inplace=False)\n          )\n          (ls2): Identity()\n          (drop_path2): Identity()\n        )\n        (18): Block(\n          (norm1): LayerNorm((1024,), eps=1e-06, elementwise_affine=True)\n          (attn): Attention(\n            (qkv): Linear(in_features=1024, out_features=3072, bias=True)\n            (q_norm): Identity()\n            (k_norm): Identity()\n            (attn_drop): Dropout(p=0.0, inplace=False)\n            (proj): Linear(in_features=1024, out_features=1024, bias=True)\n            (proj_drop): Dropout(p=0.0, inplace=False)\n          )\n          (ls1): Identity()\n          (drop_path1): Identity()\n          (norm2): LayerNorm((1024,), eps=1e-06, elementwise_affine=True)\n          (mlp): Mlp(\n            (fc1): Linear(in_features=1024, out_features=4096, bias=True)\n            (act): GELU(approximate='none')\n            (drop1): Dropout(p=0.0, inplace=False)\n            (norm): Identity()\n            (fc2): Linear(in_features=4096, out_features=1024, bias=True)\n            (drop2): Dropout(p=0.0, inplace=False)\n          )\n          (ls2): Identity()\n          (drop_path2): Identity()\n        )\n        (19): Block(\n          (norm1): LayerNorm((1024,), eps=1e-06, elementwise_affine=True)\n          (attn): Attention(\n            (qkv): Linear(in_features=1024, out_features=3072, bias=True)\n            (q_norm): Identity()\n            (k_norm): Identity()\n            (attn_drop): Dropout(p=0.0, inplace=False)\n            (proj): Linear(in_features=1024, out_features=1024, bias=True)\n            (proj_drop): Dropout(p=0.0, inplace=False)\n          )\n          (ls1): Identity()\n          (drop_path1): Identity()\n          (norm2): LayerNorm((1024,), eps=1e-06, elementwise_affine=True)\n          (mlp): Mlp(\n            (fc1): Linear(in_features=1024, out_features=4096, bias=True)\n            (act): GELU(approximate='none')\n            (drop1): Dropout(p=0.0, inplace=False)\n            (norm): Identity()\n            (fc2): Linear(in_features=4096, out_features=1024, bias=True)\n            (drop2): Dropout(p=0.0, inplace=False)\n          )\n          (ls2): Identity()\n          (drop_path2): Identity()\n        )\n        (20): Block(\n          (norm1): LayerNorm((1024,), eps=1e-06, elementwise_affine=True)\n          (attn): Attention(\n            (qkv): Linear(in_features=1024, out_features=3072, bias=True)\n            (q_norm): Identity()\n            (k_norm): Identity()\n            (attn_drop): Dropout(p=0.0, inplace=False)\n            (proj): Linear(in_features=1024, out_features=1024, bias=True)\n            (proj_drop): Dropout(p=0.0, inplace=False)\n          )\n          (ls1): Identity()\n          (drop_path1): Identity()\n          (norm2): LayerNorm((1024,), eps=1e-06, elementwise_affine=True)\n          (mlp): Mlp(\n            (fc1): Linear(in_features=1024, out_features=4096, bias=True)\n            (act): GELU(approximate='none')\n            (drop1): Dropout(p=0.0, inplace=False)\n            (norm): Identity()\n            (fc2): Linear(in_features=4096, out_features=1024, bias=True)\n            (drop2): Dropout(p=0.0, inplace=False)\n          )\n          (ls2): Identity()\n          (drop_path2): Identity()\n        )\n        (21): Block(\n          (norm1): LayerNorm((1024,), eps=1e-06, elementwise_affine=True)\n          (attn): Attention(\n            (qkv): Linear(in_features=1024, out_features=3072, bias=True)\n            (q_norm): Identity()\n            (k_norm): Identity()\n            (attn_drop): Dropout(p=0.0, inplace=False)\n            (proj): Linear(in_features=1024, out_features=1024, bias=True)\n            (proj_drop): Dropout(p=0.0, inplace=False)\n          )\n          (ls1): Identity()\n          (drop_path1): Identity()\n          (norm2): LayerNorm((1024,), eps=1e-06, elementwise_affine=True)\n          (mlp): Mlp(\n            (fc1): Linear(in_features=1024, out_features=4096, bias=True)\n            (act): GELU(approximate='none')\n            (drop1): Dropout(p=0.0, inplace=False)\n            (norm): Identity()\n            (fc2): Linear(in_features=4096, out_features=1024, bias=True)\n            (drop2): Dropout(p=0.0, inplace=False)\n          )\n          (ls2): Identity()\n          (drop_path2): Identity()\n        )\n        (22): Block(\n          (norm1): LayerNorm((1024,), eps=1e-06, elementwise_affine=True)\n          (attn): Attention(\n            (qkv): Linear(in_features=1024, out_features=3072, bias=True)\n            (q_norm): Identity()\n            (k_norm): Identity()\n            (attn_drop): Dropout(p=0.0, inplace=False)\n            (proj): Linear(in_features=1024, out_features=1024, bias=True)\n            (proj_drop): Dropout(p=0.0, inplace=False)\n          )\n          (ls1): Identity()\n          (drop_path1): Identity()\n          (norm2): LayerNorm((1024,), eps=1e-06, elementwise_affine=True)\n          (mlp): Mlp(\n            (fc1): Linear(in_features=1024, out_features=4096, bias=True)\n            (act): GELU(approximate='none')\n            (drop1): Dropout(p=0.0, inplace=False)\n            (norm): Identity()\n            (fc2): Linear(in_features=4096, out_features=1024, bias=True)\n            (drop2): Dropout(p=0.0, inplace=False)\n          )\n          (ls2): Identity()\n          (drop_path2): Identity()\n        )\n        (23): Block(\n          (norm1): LayerNorm((1024,), eps=1e-06, elementwise_affine=True)\n          (attn): Attention(\n            (qkv): Linear(in_features=1024, out_features=3072, bias=True)\n            (q_norm): Identity()\n            (k_norm): Identity()\n            (attn_drop): Dropout(p=0.0, inplace=False)\n            (proj): Linear(in_features=1024, out_features=1024, bias=True)\n            (proj_drop): Dropout(p=0.0, inplace=False)\n          )\n          (ls1): Identity()\n          (drop_path1): Identity()\n          (norm2): LayerNorm((1024,), eps=1e-06, elementwise_affine=True)\n          (mlp): Mlp(\n            (fc1): Linear(in_features=1024, out_features=4096, bias=True)\n            (act): GELU(approximate='none')\n            (drop1): Dropout(p=0.0, inplace=False)\n            (norm): Identity()\n            (fc2): Linear(in_features=4096, out_features=1024, bias=True)\n            (drop2): Dropout(p=0.0, inplace=False)\n          )\n          (ls2): Identity()\n          (drop_path2): Identity()\n        )\n      )\n      (norm): LayerNorm((1024,), eps=1e-06, elementwise_affine=True)\n      (fc_norm): Identity()\n      (head_drop): Dropout(p=0.0, inplace=False)\n      (head): Linear(in_features=1024, out_features=1000, bias=True)\n    )\n    (act_postprocess1): Sequential(\n      (0): ProjectReadout(\n        (project): Sequential(\n          (0): Linear(in_features=2048, out_features=1024, bias=True)\n          (1): GELU(approximate='none')\n        )\n      )\n      (1): Transpose()\n      (2): Unflatten(dim=2, unflattened_size=torch.Size([24, 24]))\n      (3): Conv2d(1024, 256, kernel_size=(1, 1), stride=(1, 1))\n      (4): ConvTranspose2d(256, 256, kernel_size=(4, 4), stride=(4, 4))\n    )\n    (act_postprocess2): Sequential(\n      (0): ProjectReadout(\n        (project): Sequential(\n          (0): Linear(in_features=2048, out_features=1024, bias=True)\n          (1): GELU(approximate='none')\n        )\n      )\n      (1): Transpose()\n      (2): Unflatten(dim=2, unflattened_size=torch.Size([24, 24]))\n      (3): Conv2d(1024, 512, kernel_size=(1, 1), stride=(1, 1))\n      (4): ConvTranspose2d(512, 512, kernel_size=(2, 2), stride=(2, 2))\n    )\n    (act_postprocess3): Sequential(\n      (0): ProjectReadout(\n        (project): Sequential(\n          (0): Linear(in_features=2048, out_features=1024, bias=True)\n          (1): GELU(approximate='none')\n        )\n      )\n      (1): Transpose()\n      (2): Unflatten(dim=2, unflattened_size=torch.Size([24, 24]))\n      (3): Conv2d(1024, 1024, kernel_size=(1, 1), stride=(1, 1))\n    )\n    (act_postprocess4): Sequential(\n      (0): ProjectReadout(\n        (project): Sequential(\n          (0): Linear(in_features=2048, out_features=1024, bias=True)\n          (1): GELU(approximate='none')\n        )\n      )\n      (1): Transpose()\n      (2): Unflatten(dim=2, unflattened_size=torch.Size([24, 24]))\n      (3): Conv2d(1024, 1024, kernel_size=(1, 1), stride=(1, 1))\n      (4): Conv2d(1024, 1024, kernel_size=(3, 3), stride=(2, 2), padding=(1, 1))\n    )\n  )\n  (scratch): Module(\n    (layer1_rn): Conv2d(256, 256, kernel_size=(3, 3), stride=(1, 1), padding=(1, 1), bias=False)\n    (layer2_rn): Conv2d(512, 256, kernel_size=(3, 3), stride=(1, 1), padding=(1, 1), bias=False)\n    (layer3_rn): Conv2d(1024, 256, kernel_size=(3, 3), stride=(1, 1), padding=(1, 1), bias=False)\n    (layer4_rn): Conv2d(1024, 256, kernel_size=(3, 3), stride=(1, 1), padding=(1, 1), bias=False)\n    (refinenet1): FeatureFusionBlock_custom(\n      (out_conv): Conv2d(256, 256, kernel_size=(1, 1), stride=(1, 1))\n      (resConfUnit1): ResidualConvUnit_custom(\n        (conv1): Conv2d(256, 256, kernel_size=(3, 3), stride=(1, 1), padding=(1, 1))\n        (conv2): Conv2d(256, 256, kernel_size=(3, 3), stride=(1, 1), padding=(1, 1))\n        (activation): ReLU()\n        (skip_add): FloatFunctional(\n          (activation_post_process): Identity()\n        )\n      )\n      (resConfUnit2): ResidualConvUnit_custom(\n        (conv1): Conv2d(256, 256, kernel_size=(3, 3), stride=(1, 1), padding=(1, 1))\n        (conv2): Conv2d(256, 256, kernel_size=(3, 3), stride=(1, 1), padding=(1, 1))\n        (activation): ReLU()\n        (skip_add): FloatFunctional(\n          (activation_post_process): Identity()\n        )\n      )\n      (skip_add): FloatFunctional(\n        (activation_post_process): Identity()\n      )\n    )\n    (refinenet2): FeatureFusionBlock_custom(\n      (out_conv): Conv2d(256, 256, kernel_size=(1, 1), stride=(1, 1))\n      (resConfUnit1): ResidualConvUnit_custom(\n        (conv1): Conv2d(256, 256, kernel_size=(3, 3), stride=(1, 1), padding=(1, 1))\n        (conv2): Conv2d(256, 256, kernel_size=(3, 3), stride=(1, 1), padding=(1, 1))\n        (activation): ReLU()\n        (skip_add): FloatFunctional(\n          (activation_post_process): Identity()\n        )\n      )\n      (resConfUnit2): ResidualConvUnit_custom(\n        (conv1): Conv2d(256, 256, kernel_size=(3, 3), stride=(1, 1), padding=(1, 1))\n        (conv2): Conv2d(256, 256, kernel_size=(3, 3), stride=(1, 1), padding=(1, 1))\n        (activation): ReLU()\n        (skip_add): FloatFunctional(\n          (activation_post_process): Identity()\n        )\n      )\n      (skip_add): FloatFunctional(\n        (activation_post_process): Identity()\n      )\n    )\n    (refinenet3): FeatureFusionBlock_custom(\n      (out_conv): Conv2d(256, 256, kernel_size=(1, 1), stride=(1, 1))\n      (resConfUnit1): ResidualConvUnit_custom(\n        (conv1): Conv2d(256, 256, kernel_size=(3, 3), stride=(1, 1), padding=(1, 1))\n        (conv2): Conv2d(256, 256, kernel_size=(3, 3), stride=(1, 1), padding=(1, 1))\n        (activation): ReLU()\n        (skip_add): FloatFunctional(\n          (activation_post_process): Identity()\n        )\n      )\n      (resConfUnit2): ResidualConvUnit_custom(\n        (conv1): Conv2d(256, 256, kernel_size=(3, 3), stride=(1, 1), padding=(1, 1))\n        (conv2): Conv2d(256, 256, kernel_size=(3, 3), stride=(1, 1), padding=(1, 1))\n        (activation): ReLU()\n        (skip_add): FloatFunctional(\n          (activation_post_process): Identity()\n        )\n      )\n      (skip_add): FloatFunctional(\n        (activation_post_process): Identity()\n      )\n    )\n    (refinenet4): FeatureFusionBlock_custom(\n      (out_conv): Conv2d(256, 256, kernel_size=(1, 1), stride=(1, 1))\n      (resConfUnit1): ResidualConvUnit_custom(\n        (conv1): Conv2d(256, 256, kernel_size=(3, 3), stride=(1, 1), padding=(1, 1))\n        (conv2): Conv2d(256, 256, kernel_size=(3, 3), stride=(1, 1), padding=(1, 1))\n        (activation): ReLU()\n        (skip_add): FloatFunctional(\n          (activation_post_process): Identity()\n        )\n      )\n      (resConfUnit2): ResidualConvUnit_custom(\n        (conv1): Conv2d(256, 256, kernel_size=(3, 3), stride=(1, 1), padding=(1, 1))\n        (conv2): Conv2d(256, 256, kernel_size=(3, 3), stride=(1, 1), padding=(1, 1))\n        (activation): ReLU()\n        (skip_add): FloatFunctional(\n          (activation_post_process): Identity()\n        )\n      )\n      (skip_add): FloatFunctional(\n        (activation_post_process): Identity()\n      )\n    )\n    (output_conv): Sequential(\n      (0): Conv2d(256, 128, kernel_size=(3, 3), stride=(1, 1), padding=(1, 1))\n      (1): Interpolate()\n      (2): Conv2d(128, 32, kernel_size=(3, 3), stride=(1, 1), padding=(1, 1))\n      (3): ReLU(inplace=True)\n      (4): Conv2d(32, 1, kernel_size=(1, 1), stride=(1, 1))\n      (5): ReLU(inplace=True)\n      (6): Identity()\n    )\n  )\n)\n\n\n\nmidas_transforms = torch.hub.load(\"intel-isl/MiDaS\", \"transforms\")\n\nif model_type == \"DPT_Large\" or model_type == \"DPT_Hybrid\":\n    transform = midas_transforms.dpt_transform\nelse:\n    transform = midas_transforms.small_transform\n\nUsing cache found in /home/ben/.cach
…
